models/model_no_quant.tflite (tflite, 3180 bytes, 5 tensors)

sequential_1/dense_3/BiasAdd/ReadVariableOp f4 [16]
00000000: 8c72 803e 45f1 ab3e 190f 82bd 0000 0000
00000010: 0000 0000 0000 0000 cf05 d83e 0000 0000
00000020: b0c5 8abc 090c 08bd 302f a03d a55d 0dbe
00000030: 0000 0000 3ef3 38be 0000 0000 9bf6 4ebe
0.25087392 0.33582512 -0.06350536 0.0 0.0 0.0 0.42191932 0.0
-0.016939968 -0.033214603 0.078215 -0.13805254 0.0 -0.1806154 0.0 -0.2021126

sequential_1/dense_2/BiasAdd/ReadVariableOp f4 [16]
00000000: 993e 43be 0000 0000 307e cdbd 52b1 653e
00000010: 0000 0000 c2db 1bbe 0000 0000 d083 883e
00000020: eb73 74bd 0000 0000 e525 57be 0000 0000
00000030: 89c8 c4bb 0000 0000 9878 883d 0000 0000
-0.19066848 0.0 -0.10033834 0.22430924 0.0 -0.1522055 0.0 0.26663065
-0.05968086 0.0 -0.2101055 0.0 -0.006005351 0.0 0.066636264 0.0

sequential_1/dense_2/MatMul f4 [16, 1]
00000000: 15b6 703e c056 6ebc 69d1 6c3e 0b15 2c3e
00000010: 98dd f2be 61fd 003e a013 a1bd 5b6c ca3e
00000020: 3d09 1c3f f021 a3be 6e7f f43e d01e 91bd
00000030: 6ed0 a5bb 7854 14bf bc62 ff3e a005 e8bc
0.23506959 -0.01454705 0.23126759 0.16804902 -0.47434688 0.12596656 -0.07865071 0.39535794
0.60951596 -0.3186183 0.4775347 -0.07085955 -0.005060247 -0.5794139 0.49880016 -0.028322995

sequential_1/dense_3/MatMul f4 [16, 16]
00000000: 89a2 22be dc25 9d3d 6b0a 173e 44f9 893e
00000010: 71e6 a8be 569c 6ebe 2e72 23be 3b0b 003f
00000020: 68f2 a43e 78d6 403d 13a7 ba3e 8c7d b43d
00000030: b77a aa3e 4b54 55be 6ce6 063e d026 143d
00000040: 2ba8 44bd 2c0e 8dbd 25a9 933e 28b5 213e
00000050: 5772 8b3e 29c3 43be 2de7 d53e a706 063f
00000060: 8de0 9dbd 85c2 c63e d1dc 85be 9002 d33c
00000070: 4e96 7f3e a0c9 8c3c 4581 2ebd ca76 353e
00000080: df19 873e e40c 56be 2e3a 543e 3ca9 743e
00000090: 5302 b43e d24e 1e3e fc55 ae3d 4de4 f83d
000000a0: 308f d1bd e096 37be 34fc b7bd e6c5 353e
000000b0: e069 7ebc 4c08 99be 293c ddbe 369a d3be
000000c0: 26a8 2c3e e047 7b3c da1b cdbe f4a0 8a3d
000000d0: 55e7 83be bb43 8f3e 2860 4c3d 6658 c7be
000000e0: 5036 c2be 6ddc 9d3e 74ae 9cbd 492c b73e
000000f0: 7355 86be 8a91 683e 4ac7 d9be 5210 603e
00000100: b478 26be 6b93 ce3e d68f ccbe 4bbe 73be
00000110: 7b2b d0be d4a1 dabe ccb0 a2be ea9f aabe
00000120: acd5 b9be 8c3a 08be fcaa cdbd df02 cdbe
00000130: b9e1 d5be e0c1 0b3d f789 86be c5b4 76be
00000140: 801a 4fbd 3009 33bd 20ce bfbd 06d2 0ebe
00000150: 7ee4 78be 6884 b9bd 49d3 8d3e bc3c cbbe
00000160: c48f a8bd 1299 133e 5826 5dbd 5101 b43e
00000170: 10de 8b3c 0011 f8bd d558 903e 2453 92be
00000180: a807 f73e 0f5d c5be 6b6c cd3e 099e be3e
00000190: 7b71 ce3e cbe7 b53e 4681 03be a4bb 923e
000001a0: 84de 67bf c00e dabe 54e7 2cbe 984e 883d
000001b0: 2e2e d1be 4536 49be fdcd 03bf fad8 86be
000001c0: 206f a4bc 367d 413e fc99 acbe 2bd7 b33e
000001d0: 69e4 903e 3917 50be 76b5 a1be b0a8 8cbe
000001e0: 00f8 7cbe 3a39 07be de45 513e 00e7 05bc
000001f0: 533a 8c3e caec 733e be2a 9bbe b757 cd3e
00000200: ec1a c6be 7201 113e 80c1 11bb 627e a63d
00000210: 205c c5be 73c3 4abe 9da8 cc3e 1788 a43d
00000220: 5e6d 5a3e eeff 9abe 0c9d d4bd bbf8 b33e
00000230: 7b4a 8fbe 83c8 d53e 08be d1be 6e75 39be
00000240: 3aa6 373e c66a 59be d5ea 4dbe f298 ccbe
00000250: 00e7 7abc cfc8 d13e 3a90 1cbe 03cb 803e
00000260: 553c 4cbe 1596 be3e ec9b e6be 4e93 7a3e
00000270: dd1a cb3e bf7f d13e f6f0 3e3e f6b5 69be
00000280: 65c6 aa3e 6cdd aa3d 6113 dabe b2b2 a53e
00000290: 28ea 39bd 4aac c3be b91a a83e 20e4 f1bd
000002a0: 1d21 9abe 861e 8ebe 3570 ab3e 6d87 843e
000002b0: b00f cf3c 10d3 2abe ea27 dbbe dc3f b53d
000002c0: cae7 cd3e 2ecb bbbe 6a4c f53e 8960 b7bd
000002d0: 08bf bbbe cde5 1a3f fe02 04be 3fb2 6dbe
000002e0: 102a f03e cdce 913e 47ca b73e 614c b13e
000002f0: 06ad d73e 1a4d 1d3e 6cf8 9bbe dee6 6c3e
00000300: 72a1 adbe 81c2 8a3e d83a 01be c0ca 10be
00000310: 8847 d7bd e8dd 8dbd 4a8a 1a3e 8821 b5be
00000320: dd2c 8b3e 7f25 cd3e 2c15 8e3d 3358 61be
00000330: 40c2 633d 6102 54be 080d c2be 5a68 1c3e
00000340: 41e6 403e be5c 623e 7a01 9b3e 0f96 cabe
00000350: 2988 60be a6d0 d23e 201c 373d ad0b ee3d
00000360: 3bf5 6c3e 878e c23e 92de ba3c abd5 c63e
00000370: 61d6 d73e 665e 02be 524a 643d cb23 94be
00000380: 2247 1c3e 58a9 843d 10cc 853d d0d8 ab3c
00000390: a75e c43e 9a90 403e c20d 7a3e 4064 05bc
000003a0: 9fb5 b8be 0cd3 dbbe 9adb 98be 785d 6fbd
000003b0: 3030 6ebd 3905 c73e 00f7 c1be 2c92 a0bd
000003c0: 12fb d93e 38a2 483d aff9 f83e e144 30be
000003d0: 5042 2bbd 6a4e a6bd b8e6 1ebd 6341 8bbe
000003e0: 6b4d 8b3e 049c 9bbe 13d9 dd3e 0fed 9bbe
000003f0: 6a27 b9be dd16 41be 4114 903c a686 693e
-0.15882315 0.07673237 0.14750068 0.26947987 -0.32988313 -0.23301825 -0.15961525 0.50017136
0.3221619 0.047079533 0.36455593 0.08813009 0.3329675 -0.20832936 0.13173836 0.036169827
-0.04801194 -0.06887469 0.28839985 0.15791762 0.27235672 -0.19117416 0.41777936 0.523539
-0.07708845 0.38820282 -0.26145032 0.025758058 0.2495968 0.017185986 -0.04260375 0.17721096
0.26386926 -0.20903355 0.20725319 0.23892683 0.35158023 0.15459755 0.08512494 0.1215292
-0.10232389 -0.17928648 -0.08983651 0.17751274 -0.015528172 -0.29889143 -0.4320996 -0.4132859
0.16861019 0.015336961 -0.40060312 0.067689806 -0.2576243 0.27981362 0.04989639 -0.3893463
-0.37932062 0.30832234 -0.07650462 0.35775974 -0.26237068 0.22711769 -0.42534858 0.21881226
-0.16256982 0.40346846 -0.39953488 -0.2380306 -0.40658173 -0.4270159 -0.3177551 -0.3332513
-0.3629583 -0.13303584 -0.10042378 -0.40041253 -0.41773775 0.03412044 -0.26277134 -0.24092396
-0.05056238 -0.043709934 -0.09365487 -0.13947305 -0.24305913 -0.090584576 0.2770026 -0.39694774
-0.08230546 0.1441386 -0.053991646 0.35157254 0.017073661 -0.121126175 0.28192773 -0.28579056
0.4824803 -0.3854756 0.4012178 0.37229946 0.40320954 0.35528407 -0.12842283 0.28658783
-0.90573907 -0.42589378 -0.1688512 0.066556156 -0.40855545 -0.19649608 -0.5148619 -0.26337415
-0.02007252 0.1889542 -0.3371123 0.35125098 0.28299263 -0.20321359 -0.31583756 -0.27472448
-0.2470398 -0.13205424 0.20436808 -0.0081727505 0.27388248 0.23820797 -0.30306047 0.40105984
-0.38692415 0.14160708 -0.002224058 0.08129574 -0.38546848 -0.1980112 0.39972392 0.080337696
0.21330783 -0.30273384 -0.10381517 0.35150704 -0.27986512 0.4175454 -0.40965295 -0.18111202
0.17934504 -0.21232137 -0.20109113 -0.39960438 -0.015313864 0.40973517 -0.15289393 0.25154886
-0.1994489 0.37223879 -0.45040834 0.24470255 0.39668933 0.40917775 0.18646607 -0.22823319
0.33354488 0.08343014 -0.4259291 0.32362896 -0.045389324 -0.38217384 0.32832888 -0.118110895
-0.30103388 -0.27757663 0.33484045 0.25884572 0.025276035 -0.16682076 -0.4280389 0.08850071
0.40215904 -0.3667845 0.47909862 -0.089539595 -0.36669183 0.605069 -0.12891766 -0.23212527
0.4690709 0.2847809 0.35896513 0.34628585 0.42124194 0.15361443 -0.30462968 0.23134944
-0.33912235 0.2710152 -0.12620103 -0.14139843 -0.105116904 -0.06927091 0.15091816 -0.35377145
0.27182665 0.4006767 0.06937632 -0.22006302 0.055605173 -0.20704032 -0.37900567 0.15274182
0.18837835 0.22105691 0.30274564 -0.3956761 -0.21926941 0.4117481 0.044704556 0.11623321
0.23140423 0.37999365 0.022811208 0.3883489 0.42155746 -0.12731323 0.05573494 -0.28933558
0.1526151 0.06477612 0.065330625 0.020977408 0.38353464 0.18805161 0.2441931 -0.008141577
-0.36076066 -0.42934453 -0.29855043 -0.058438748 -0.058151424 0.38871172 -0.3788376 -0.0784038
0.42574364 0.04898283 0.48627993 -0.17213775 -0.041811287 -0.08120425 -0.03879425 -0.27198324
0.27207503 -0.30392468 0.43329677 -0.304543 -0.36162883 -0.18856378 0.017587783 0.2280527

sequential_1/dense_4/MatMul f4 [1, 16]
00000000: 3658 813e 5f06 113f 0b83 5f3e 5c57 d0be
00000010: 1730 f6be d84a 203e b3dc 7ebf b459 0dbf
00000020: 9873 d63e c912 d6be 8252 d0be 7eed 2dbf
00000030: 90f0 45be ee09 e8be fea5 153f 93da a1be
0.25262612 0.56650347 0.21827333 -0.4069165 -0.48083565 0.1565355 -0.9955551 -0.55215
0.41885066 -0.41811207 -0.40687948 -0.6794051 -0.19330049 -0.45320076 0.5845641 -0.3161207
