models/model.tflite (tflite, 3024 bytes, 3 tensors)

sequential_1/dense_4/MatMul i1 [1, 16] scale=0.007839017 zero_point=0
000000 20 48 1c cc c3 14 81 ba 35 cb cc a9 e7 c6 4b d8
       0.25084853 0.5644092 0.21949247 -0.40762886 -0.47818002 0.15678033 -0.9955551 -0.54873115 0.4154679 -0.4154679 -0.40762886 -0.68199444 -0.19597542 -0.45466298 0.58792627 -0.31356066

sequential_1/dense_3/MatMul i1 [16, 16] scale=0.007131804 zero_point=0
000000 ea 0b 15 26 d2 df ea 46 2d 07 33 0c 2f e3 12 05
       -0.15689969 0.078449845 0.14976788 0.27100855 -0.32806298 -0.23534952 -0.15689969 0.49922627 0.32093117 0.049922626 0.363722 0.085581645 0.33519477 -0.2068223 0.12837246 0.03565902
000010 f9 f6 28 16 26 e5 3b 49 f5 36 db 04 23 02 fa 19
       -0.049922626 -0.07131804 0.28527215 0.15689969 0.27100855 -0.1925587 0.42077643 0.52062166 -0.078449845 0.3851174 -0.26387674 0.028527215 0.24961314 0.014263608 -0.042790823 0.17829509
000020 25 e3 1d 22 31 16 0c 11 f2 e7 f3 19 fe d6 c3 c6
       0.26387674 -0.2068223 0.2068223 0.24248132 0.3494584 0.15689969 0.085581645 0.12124066 -0.09984525 -0.17829509 -0.092713445 0.17829509 -0.014263608 -0.29953575 -0.43504003 -0.4136446
000030 18 02 c8 09 dc 27 07 c9 cb 2b f5 32 db 20 c4 1f
       0.17116329 0.014263608 -0.399381 0.06418623 -0.25674492 0.27814034 0.049922626 -0.3922492 -0.3779856 0.30666757 -0.078449845 0.35659018 -0.26387674 0.22821772 -0.42790824 0.22108592
000040 e9 39 c8 df c7 c4 d3 d1 cd ed f2 c8 c5 05 db de
       -0.16403149 0.40651283 -0.399381 -0.23534952 -0.40651283 -0.42790824 -0.32093117 -0.33519477 -0.363722 -0.13550428 -0.09984525 -0.399381 -0.42077643 0.03565902 -0.26387674 -0.24248132
000050 f9 fa f3 ec de f3 27 c8 f4 14 f8 31 02 ef 28 d8
       -0.049922626 -0.042790823 -0.092713445 -0.14263608 -0.24248132 -0.092713445 0.27814034 -0.399381 -0.085581645 0.14263608 -0.05705443 0.3494584 0.014263608 -0.12124066 0.28527215 -0.28527215
000060 44 ca 38 34 39 32 ee 28 81 c4 e8 09 c7 e4 b8 db
       0.48496264 -0.3851174 0.399381 0.37085378 0.40651283 0.35659018 -0.12837246 0.28527215 -0.90573907 -0.42790824 -0.17116329 0.06418623 -0.40651283 -0.1996905 -0.51348984 -0.26387674
000070 fd 1a d1 31 28 e4 d4 d9 dd ed 1d ff 26 21 d6 38
       -0.021395411 0.18542689 -0.33519477 0.3494584 0.28527215 -0.1996905 -0.31379938 -0.27814034 -0.24961314 -0.13550428 0.2068223 -0.007131804 0.27100855 0.23534952 -0.29953575 0.399381
000080 ca 14 00 0b ca e4 38 0b 1e d6 f1 31 d9 3b c7 e7
       -0.3851174 0.14263608 0.0 0.078449845 -0.3851174 -0.1996905 0.399381 0.078449845 0.21395412 -0.29953575 -0.10697706 0.3494584 -0.27814034 0.42077643 -0.40651283 -0.17829509
000090 19 e2 e4 c8 fe 39 eb 23 e4 34 c1 22 38 39 1a e0
       0.17829509 -0.21395412 -0.1996905 -0.399381 -0.014263608 0.40651283 -0.14976788 0.24961314 -0.1996905 0.37085378 -0.44930363 0.24248132 0.399381 0.40651283 0.18542689 -0.22821772
0000a0 2f 0c c4 2d fa ca 2e ef d6 d9 2f 24 04 e9 c4 0c
       0.33519477 0.085581645 -0.42790824 0.32093117 -0.042790823 -0.3851174 0.32806298 -0.12124066 -0.29953575 -0.27814034 0.33519477 0.25674492 0.028527215 -0.16403149 -0.42790824 0.085581645
0000b0 38 cd 43 f3 cd 55 ee df 42 28 32 31 3b 16 d5 20
       0.399381 -0.363722 0.47783086 -0.092713445 -0.363722 0.6062033 -0.12837246 -0.23534952 0.47069904 0.28527215 0.35659018 0.3494584 0.42077643 0.15689969 -0.30666757 0.22821772
0000c0 d0 26 ee ec f1 f6 15 ce 26 38 0a e1 08 e3 cb 15
       -0.34232658 0.27100855 -0.12837246 -0.14263608 -0.10697706 -0.07131804 0.14976788 -0.35659018 0.27100855 0.399381 0.07131804 -0.22108592 0.05705443 -0.2068223 -0.3779856 0.14976788
0000d0 1a 1f 2a c9 e1 3a 06 10 20 35 03 36 3b ee 08 d7
       0.18542689 0.22108592 0.29953575 -0.3922492 -0.22108592 0.4136446 0.042790823 0.11410886 0.22821772 0.3779856 0.021395411 0.3851174 0.42077643 -0.12837246 0.05705443 -0.29240397
0000e0 15 09 09 03 36 1a 22 ff cd c4 d6 f8 f8 37 cb f5
       0.14976788 0.06418623 0.06418623 0.021395411 0.3851174 0.18542689 0.24248132 -0.007131804 -0.363722 -0.42790824 -0.29953575 -0.05705443 -0.05705443 0.3922492 -0.3779856 -0.078449845
0000f0 3c 07 44 e8 fa f5 fb da 26 d5 3d d5 cd e6 02 20
       0.42790824 0.049922626 0.48496264 -0.17116329 -0.042790823 -0.078449845 -0.03565902 -0.27100855 0.27100855 -0.30666757 0.43504003 -0.30666757 -0.363722 -0.18542689 0.014263608 0.22821772

sequential_1/dense_2/MatMul i1 [16, 1] scale=0.0047993385 zero_point=0
000000 31 fd 30 23 9d 1a f0 52 7f be 64 f1 ff 87 68 fa
       0.2351676 -0.014398016 0.23036826 0.16797684 -0.47513452 0.1247828 -0.07678942 0.39354575 0.60951596 -0.31675634 0.47993386 -0.07199008 -0.0047993385 -0.58071995 0.4991312 -0.028796032
